intellicombat_rl_trainer/model/intellicombat_model_ready.onnx (onnx, 20977 bytes, 6 tensors)

model/output/MatMul/ReadVariableOp:0 f4 [64, 5]
000000 d8 37 2f 3e ad 7f ee bc 2a 6e 6c 3d 63 02 d5 3e
       0.17111146 -0.029113615 0.057722248 0.41603383
000010 fd 57 83 3e 1e 93 56 bd 7f 62 aa bd b8 f4 eb 3c
       0.25653067 -0.052386396 -0.08319568 0.028803214
000020 8a 45 ea 3e 45 ac af 3e c7 44 81 3c 10 67 c6 3c
       0.4575618 0.3431112 0.015779866 0.024219066
000030 68 a5 f3 3c ad 09 81 be d3 ab 13 be 75 8e eb bd
       0.029741958 -0.25202695 -0.14421014 -0.11501781
000040 5c bd 28 3e f3 bd 12 3e 63 8d 69 3d f2 ed 5e 3e
       0.16478485 0.14330272 0.057019603 0.21770456
000050 9b 6f 95 be 04 e4 e4 3e 00 b4 2b 3d 0b 63 81 3d
       -0.2918671 0.44705212 0.04191971 0.06317719
000060 5e ab 8c bc e6 6a 56 3d de b7 33 be 26 8b 25 be
       -0.017171558 0.05234804 -0.17550609 -0.16166362
000070 dc ba e9 bd 6a 6c 90 3e b4 19 83 be 64 d3 76 3e
       -0.11412594 0.28207713 -0.25605547 0.24104077
000080 6b ae 2b be ac 98 a1 3d 3a f0 7d be 1e 1f 13 3c
       -0.16765754 0.07890448 -0.2479867 0.008979587
000090 1c e6 13 be f4 04 39 3d c1 97 29 bf b0 2c dd be
       -0.14443249 0.04517074 -0.66247183 -0.43198156
0000a0 c4 4b 36 be 3b 5a ce 3b 1c 63 79 bb 57 a5 e5 3d
       -0.1780234 0.0062973774 -0.0038053459 0.11213177
0000b0 56 b5 0c be 24 3e 67 3e 6b 2f 43 bd 25 ac a5 3c
       -0.13741049 0.22582299 -0.047652643 0.020223686
0000c0 1a ae 27 be 12 5d 45 3e c4 c3 67 3e c3 6e 0f 3e
       -0.16375008 0.19273785 0.22633272 0.14007096
0000d0 82 d6 14 3e 99 b9 83 be fc 71 10 3e 96 fb de bd
       0.14534953 -0.25727537 0.14105982 -0.1088783
0000e0 4e 3a ac bd ac 22 cb 3d e6 b9 89 3e 88 fd 1a 3e
       -0.08409558 0.099187225 0.26899642 0.15135777
0000f0 be f2 89 3e 7f 26 e1 3c d7 18 15 bd 36 82 29 3e
       0.2694301 0.027484177 -0.036400642 0.16553578
000100 5d 0f d5 3d e1 83 a7 bd 24 46 98 bd 71 99 48 bd
       0.10403321 -0.08179451 -0.07435253 -0.048974458
000110 da 00 82 be 3a e2 81 be cc 63 9e be ea 49 1b bd
       -0.25391275 -0.2536791 -0.30935514 -0.037912287
000120 40 b9 aa 3d be c1 ec bd 88 b0 64 3c de 24 a9 bd
       0.08336115 -0.11560391 0.013958104 -0.08258985
000130 da 44 8a 3e 86 6a 97 bd d9 35 88 be 98 61 35 bd
       0.27005655 -0.073933646 -0.26603583 -0.044282526
000140 a4 7d 17 3d 0f ba 98 bd 99 7c ef bd bd 44 0d 3e
       0.036985055 -0.07457363 -0.11693687 0.13795753
000150 04 39 55 be 33 c8 94 be 33 6c 00 3e c6 a1 96 bd
       -0.20822531 -0.2905899 0.12541275 -0.073550746
000160 18 6d 92 3e c2 14 8b 3e 08 a9 39 be 85 65 14 3e
       0.28598857 0.27164274 -0.18130887 0.14491852
000170 30 1e ac bc 60 7a 2b bc 1b 39 f6 3d 83 9f 30 bc
       -0.021010488 -0.010466188 0.12022611 -0.010780218
000180 d4 61 2f 3e 3d 41 04 bd 39 76 ab 3e 35 3b c3 bd
       0.17127162 -0.03228878 0.33488634 -0.09532777
000190 43 1f 40 3e 4f db 02 be df c8 78 3e d3 69 7c 3e
       0.18761925 -0.12778972 0.24295376 0.24649744
0001a0 a8 85 06 be e2 14 26 be 88 26 e3 3d 3f 64 7a be
       -0.13136923 -0.16218904 0.11091334 -0.24452303
0001b0 46 8d 1f be e9 bc 91 bd f4 8b 51 be 89 ec 82 be
       -0.15581235 -0.0711611 -0.20463544 -0.25571087
0001c0 a4 e4 19 3e fc b0 a1 be 18 92 44 3d 90 7a 5e bd
       0.15028626 -0.3158034 0.04799089 -0.054316103
0001d0 5a bf 90 3e 43 c4 36 be 16 72 7a be 4f 55 93 be
       0.2827099 -0.17848305 -0.24457583 -0.28776023
0001e0 63 a0 97 3e 8b 17 36 be 21 bf d9 3d c0 79 ac be
       0.29614553 -0.17782418 0.10632158 -0.33686638
0001f0 42 fe 94 3d 9c 60 2a be 20 fe c5 3d 78 20 6a 3e
       0.07275058 -0.16638416 0.09667611 0.22863948
000200 7a 62 8a be 84 2a 18 3e d0 df 8d 3e cb 40 35 be
       -0.27028257 0.14859968 0.27709818 -0.17700498
000210 17 33 85 3e 2b e0 4f bd b3 97 15 be 7a 5e 3b 3e
       0.2601554 -0.050750893 -0.1460865 0.18297759
000220 8c 39 4e be be 10 10 be 98 fd 62 bd fb 6a 81 be
       -0.2013914 -0.14068887 -0.055417627 -0.25276932
000230 63 53 af bc 38 f9 be bc 43 9a 8b 3d 38 23 9d 3e
       -0.021402067 -0.023312196 0.068165325 0.30690932
000240 66 78 41 bf d0 6c 39 bb 13 bc a0 3d 7b 6e 90 be
       -0.7557434 -0.0028293617 0.07848372 -0.2820929
000250 ab 5b 6d 3e 73 24 14 be 64 d1 1e be 0d 86 7e be
       0.231795 -0.1446703 -0.15509564 -0.24855824
000260 12 68 12 3d 96 b2 90 be 98 10 f6 3b 94 91 5a 3e
       0.03574378 -0.2826125 0.0075093023 0.21344596
000270 60 46 3e 3e 15 40 f9 3c c3 ad ff 3d 1e 44 8e bd
       0.18581533 0.030426065 0.12484314 -0.06946586
000280 0a b6 45 be f4 7e 66 bc c6 ca 91 3d 5b 57 8f be
       -0.19307724 -0.014068354 0.07118754 -0.27996334
000290 63 95 ce 3b 2a 4f 22 bd c8 f5 82 bd 67 09 b5 3d
       0.0063044294 -0.039626278 -0.06394535 0.08839684
0002a0 d9 e0 8d 3e 56 b4 d2 3e aa fa 60 be 10 da d1 3c
       0.27710608 0.4115321 -0.21970621 0.025616676
0002b0 22 2e 5b 3e e5 18 14 be ee 5a 66 3b 13 85 94 be
       0.21404317 -0.14462622 0.0035149413 -0.29007778
0002c0 3b f9 d1 bc 38 da 71 3e 31 f0 75 3e b9 2a bd 3d
       -0.025631538 0.236184 0.24017407 0.09236664
0002d0 8c 1a 59 3d cf c7 b9 bd a6 20 97 bd bb c3 68 be
       0.053003833 -0.090713136 -0.07379274 -0.22730915
0002e0 80 9d 62 3e 20 be bb 3c 3a 18 33 be b1 ff e9 bc
       0.22130394 0.022917807 -0.1748971 -0.028564306
0002f0 38 5c aa 3e 87 3e 47 be 4c b3 a6 bd 13 5f 71 bd
       0.33273482 -0.19457446 -0.08139667 -0.05892856
000300 d6 ca f3 3d 65 04 91 be 48 6b 1e be 45 6c 61 be
       0.11903922 -0.28323665 -0.15470612 -0.22013958
000310 7f 56 13 be 92 9f 3e 3e 38 70 ab 3d c5 8c 59 3e
       -0.14388464 0.18615559 0.083710134 0.21245106
000320 e1 f1 46 3e 90 76 ae bd 62 8f 5d be b1 72 f4 bd
       0.19428207 -0.08518708 -0.21636727 -0.11935938
000330 a9 83 79 3e 95 be de 3b 06 13 c1 3d 47 c8 22 be
       0.2436663 0.0067976215 0.094274566 -0.15896712
000340 0b 1f 4b bc 34 99 9b 3e a8 90 0a 3e f9 40 e6 bd
       -0.012397538 0.30390322 0.13531744 -0.11242861
000350 b7 51 98 3d 05 34 c9 3e 6d 81 18 be b7 7c 3c bc
       0.07437461 0.392975 -0.14893122 -0.011504344
000360 5d a6 80 bd 0c ce ba 3b 41 f8 40 3d 8c 7d b0 be
       -0.06281731 0.0057008322 0.047111753 -0.34470785
000370 bb b7 d6 bd 47 f9 c8 3d 06 4b bb bd 58 d6 3e be
       -0.104842626 0.09813171 -0.09145169 -0.18636453
000380 cf 0b 06 3d 35 9e d5 3d 70 33 89 3e c4 20 c1 bd
       0.032726105 0.10430566 0.26797056 -0.09430078
000390 21 ad 22 3e a0 37 20 3d dc 89 0d be f7 fe 3d be
       0.15886356 0.039115548 -0.1382212 -0.18554293
0003a0 e2 9b d4 3d fc 66 29 be 52 fb 0b 3e 47 aa 57 3c
       0.10381295 -0.16543192 0.1367009 0.013163156
0003b0 a8 a4 09 bd 0b 05 62 3e e0 b2 bf bd 0c 6b 53 be
       -0.033604294 0.22072236 -0.093602896 -0.20646304
0003c0 cb 3c 07 bd e6 c3 7c 3d 92 1b 5a 3e 90 95 d8 bd
       -0.03301696 0.06171026 0.2129958 -0.10575402
0003d0 57 d9 91 3e bb 1e 05 3e 9a 50 c0 3b 4d 3b ff bd
       0.2848613 0.13000004 0.0058689835 -0.124624826
0003e0 a9 b7 f5 be ef 86 de 3d ba 41 56 3e b1 d1 15 3e
       -0.47991684 0.1086558 0.2092351 0.14630772
0003f0 b0 85 23 3d 77 fc c6 bd 84 7d 80 bd 3b 94 6a 3e
       0.039922416 -0.097161226 -0.0627394 0.22908108

model/output/BiasAdd/ReadVariableOp:0 f4 [5]
000000 50 31 c2 3e 4c 11 0e 3f 28 eb 41 3e d2 91 fc 3e
       0.37928247 0.5549514 0.18937361 0.49330002
000010 e9 bf 94 3e
       0.29052666

model/dense_1/MatMul/ReadVariableOp:0 f4 [64, 64]
000000 2d 2a 1d bd 55 4f 42 be 0c 02 67 3d 20 e2 11 be
       -0.0383703 -0.18975575 0.056398436 -0.14246416
000010 3d 30 b2 bd 6b 00 9a bd cf 53 44 3e 93 40 3c be
       -0.08700607 -0.07519611 0.19172595 -0.18384008
000020 86 33 5a be d7 97 a9 3d 79 2d 17 3e 8c 78 5c 3d
       -0.21308717 0.08280914 0.1476344 0.0538259
000030 a1 e7 f1 bd dc b8 4c be d6 4e 29 3c 0c 18 79 3d
       -0.11811758 -0.19992393 0.010333737 0.06081395
000040 64 d3 9c bd d2 ff 0b 3e 0d 0c 5f be 23 8c 76 3d
       -0.07657507 0.13671806 -0.21781941 0.06019224
000050 8b e5 fb bd 60 d9 05 3c c7 ef 71 3c 9c 2d 36 be
       -0.12299641 0.008169502 0.01476664 -0.17790836
000060 40 b9 4e 3e 10 61 1a bd 34 ae 83 bd b6 81 2a be
       0.20187855 -0.037690222 -0.06429711 -0.16651043
000070 1f 76 7d 3d 49 9e 0d 3e 4e 65 0f 3e 5f 97 c7 bc
       0.061880227 0.13829912 0.14003488 -0.024364172
000080 c4 e6 4a be 0f 96 9e be c9 fe 65 bb d3 19 51 be
       -0.19814593 -0.3097386 -0.003509449 -0.20420007
000090 34 2a 34 be 34 29 be 3d 73 22 87 bd 92 b1 c3 3c
       -0.17594224 0.092852026 -0.065983675 0.023888383
0000a0 7a 5f 36 3d 5c aa 1d be 34 30 0f 3d 19 e9 08 3e
       0.044524647 -0.15397018 0.03495808 0.1337017
0000b0 91 8c 1d be b7 51 a5 3d 8d 11 52 be 69 fa a8 3c
       -0.15385653 0.080722265 -0.20514508 0.020627217
0000c0 9e 35 06 be 38 9f 4a 3c 33 71 f9 bc da 03 a3 3d
       -0.13106391 0.012367062 -0.030449485 0.07959719
0000d0 46 f5 50 3e 40 3b 28 3e 04 c6 9d 3c d0 12 48 3d
       0.20406064 0.16428852 0.01925946 0.048846066
0000e0 72 9f 82 bd a9 81 22 3e 03 28 24 be c8 14 ad bc
       -0.06378068 0.15869774 -0.16030888 -0.021128073
0000f0 a1 3a 13 be 2b aa b7 bd 9c 4c 3d be 12 0c f5 3c
       -0.14377834 -0.08968004 -0.18486255 0.029912982
000100 90 96 1c be 0a 07 e8 bd a3 00 e7 bd ed 8b 48 3e
       -0.1529181 -0.113294676 -0.11279418 0.19584627
000110 7a e2 2a be 71 37 05 be f8 46 d9 bd 05 c4 c3 bd
       -0.16687956 -0.1300943 -0.10609239 -0.09558872
000120 0a 9a 17 be 73 ba 2f be e8 75 11 be 57 0b 23 3e
       -0.14804855 -0.17160968 -0.14205134 0.15922295
000130 6b 03 b7 bd d0 47 08 bd 25 7d 45 be a8 66 d3 bd
       -0.08936199 -0.03327161 -0.1928602 -0.103223145
000140 42 02 2a be 93 8c 1d 3e e9 68 da 3d 03 a3 62 3d
       -0.16602424 0.15385656 0.10664541 0.05533124
000150 d1 ca aa 3d 00 ed 27 be 7e 1f 08 be b9 02 10 3e
       0.083394654 -0.16399002 -0.13293263 0.14063539
000160 7a bf db 3d 30 a3 6e bc 65 a1 3c be fc 0e 1a be
       0.10729881 -0.014565274 -0.18420942 -0.15044779
000170 ed e5 af bd 18 4d 2b 3e 7b 21 3c bc f4 62 c3 bc
       -0.08588777 0.16728628 -0.011482592 -0.023850895
000180 e0 e8 b6 3d 43 54 6a be 36 b9 1e bd 3a 7b d9 3c
       0.08931136 -0.22883706 -0.03875085 0.026548017
000190 7f be 7e bc 9b 9e 20 3e 88 62 6d bd 84 08 55 be
       -0.0155483475 0.15685503 -0.057955295 -0.2080403
0001a0 bb cf fe bd 8a f9 48 3e 0c b9 41 be 64 35 55 3e
       -0.12441965 0.19626442 -0.18918246 0.20821148
0001b0 20 61 ca bd db 6c 11 3e 26 a0 c7 3c a8 2a 26 be
       -0.098818064 0.14201681 0.024368357 -0.1622721
0001c0 0f 21 2b 3e 6b 9c 43 3e 7f 2e 29 be b5 e5 df 3d
       0.1671183 0.19102637 -0.16521643 0.10932485
0001d0 47 2d 27 3d d0 4c fb 3d 5b 54 d8 3c e0 97 a6 bd
       0.040814664 0.1227051 0.026407411 -0.081344366
0001e0 42 7f 16 3e 7a 6c 30 be 43 af f7 3b 44 81 11 bd
       0.14696983 -0.1722888 0.0075587346 -0.035523668
0001f0 48 4b e8 3c 69 dd 14 bd c9 43 30 3e 37 a3 31 3e
       0.02835621 -0.036343966 0.17213358 0.17347418
000200 9e eb 6c bd 15 6a 8c bd 04 13 f6 3c 4d 12 bc 3d
       -0.05784189 -0.06856171 0.030038364 0.09183178
000210 2e a6 8e bc b9 d8 11 be 78 d8 05 be 53 a1 77 be
       -0.017413225 -0.1424283 -0.13070858 -0.24182634
000220 8b dc 18 bd f1 19 45 be 15 d9 0b 3e 84 24 0d 3d
       -0.0373197 -0.19248177 0.13657029 0.034458652
000230 9d 0c ae be c5 4b 6e 3e d0 c1 29 bc fd 3e 4a be
       -0.33993998 0.23271091 -0.01036115 -0.1975059
000240 cc 45 40 3e 06 a0 7b be bb d9 15 be 8c cc b9 bd
       0.18776625 -0.24572763 -0.14633839 -0.09072217
000250 1d 8d 88 bc 4e db c8 3d 4f 81 05 be ce f5 33 3e
       -0.01666885 0.09807454 -0.13037609 0.17574236
000260 db 52 89 3d 6d 4e 30 3e 41 e5 37 be 96 c9 8e 3d
       0.067052566 0.17217417 -0.17958547 0.06972043
000270 83 8e 08 3e 2d be 19 3e 4e 18 21 3e b4 9c 7e 3d
       0.13335614 0.15013953 0.15731928 0.062161162
000280 bf 46 75 3c b4 5b 50 be 47 aa 2a bd 87 72 c8 bd
       0.01497048 -0.20347482 -0.041666295 -0.09787469
000290 a2 53 6f be 6d c5 11 3e 4c ea 3a be f2 9d fe bd
       -0.23371747 0.14235468 -0.1825344 -0.124324694
0002a0 6f 85 39 be 26 be 11 be ec cf 62 3d 3e 25 0f 3f
       -0.18117307 -0.14232692 0.05537407 0.559162
0002b0 62 d8 2f 3e 12 04 73 bd cc 87 52 bd 5d b7 04 3e
       0.17172387 -0.059330054 -0.051399037 0.12960573
0002c0 be 42 cc bb f3 b1 c4 3c e2 ad 9b 3d 81 17 4a 3e
       -0.006233542 0.024010634 0.07601525 0.19735529
0002d0 05 a0 55 3c c4 8a 1c 3e 53 04 6a 3e 96 64 c4 bd
       0.01303864 0.1528731 0.22853212 -0.09589498
0002e0 5c 85 1c 3e 80 14 0c 3b 90 b0 83 be dc 75 57 bd
       0.15285248 0.0021374524 -0.25720644 -0.052602634
0002f0 e4 7e f0 bc cd ac c0 bd 83 1b cc be 42 89 5b bd
       -0.029357381 -0.09407959 -0.3986474 -0.053597696
000300 44 ee 18 bf 51 42 89 be 7b c3 8e 3e 56 33 18 3e
       -0.59738564 -0.26808408 0.27883515 0.14863333
000310 e2 00 96 bd 97 0a 49 3e 9f 38 12 be ed 43 6e bd
       -0.07324387 0.19632946 -0.14279412 -0.058170248
000320 7c 8d 01 be ac 29 45 be 73 eb 31 3e 16 0f 8b 3d
       -0.12651628 -0.19254178 0.17374973 0.06789987
000330 7d c0 9e be 76 5f bc 3e e3 e8 5b 3e 20 3c e9 bc
       -0.31006232 0.3679158 0.21475558 -0.028471053
000340 21 93 25 3e d8 a3 ea bd 33 d9 c2 3d 60 ac 8f bc
       0.16169406 -0.11457032 0.09514084 -0.01753825
000350 7a b8 a2 be 82 5c cc bc a5 2f 28 3e 62 8e a9 3e
       -0.3178137 -0.024946455 0.16424425 0.33116442
000360 b1 09 50 3e 10 ef 07 be ca 35 89 bc f3 e7 34 3e
       0.20316197 -0.13274789 -0.016749281 0.17666607
000370 e4 cf 63 3d 45 6b e3 bd b8 34 8e bd 9c 7b 04 bd
       0.05561818 -0.111044444 -0.06943649 -0.032344446
000380 7d d1 1d 3e 29 0d af bd a0 4e 78 3e b7 79 2c be
       0.15411945 -0.08547432 0.24248743 -0.16843306
000390 1b 0f fa 3c 40 d2 83 be b8 e3 33 bd 3a ce 1c be
       0.030524781 -0.25746346 -0.04391834 -0.15313044
0003a0 29 56 cd 3d b3 74 4f 3d ff 7c 4d 3e eb 6f c1 3e
       0.10026199 0.050648402 0.20067213 0.377807
0003b0 48 40 2c 3e 23 bc c3 be 90 8e 67 bc d9 25 2d 3e
       0.16821396 -0.38229474 -0.014133111 0.16908969
0003c0 cf 60 3a bd 1d d2 01 3e c9 8b 2e 3e 77 b9 3f 3e
       -0.04550248 0.12677808 0.17045511 0.18723093
0003d0 84 6c ea 3e c1 33 0b be d0 47 ce 3d a1 dd a9 be
       0.45785916 -0.13593961 0.10072291 -0.33176902
0003e0 9e 14 2e 3e 8a 73 96 3d 32 b4 5e be 37 d8 22 be
       0.17000052 0.07346256 -0.21748427 -0.15902792
0003f0 8d fc 09 be 01 95 bb 3e 74 10 4a 3e 66 f3 b3 3e
       -0.13475247 0.36637118 0.19732839 0.35146636

model/dense_1/BiasAdd/ReadVariableOp:0 f4 [64]
000000 5e 6e 31 3f 12 ad 21 3f 68 1d 1d be a0 3d 8d bc
       0.6930903 0.6315471 -0.15343249 -0.0172413
000010 16 8e 06 3f a7 71 97 bb 00 00 00 00 e5 a3 b8 bd
       0.52560556 -0.0046217027 0.0 -0.090156354
000020 99 d0 8c bc 0a d2 43 bc 83 6e 9b 3d 00 00 00 00
       -0.01718931 -0.011951933 0.07589438 0.0
000030 ef 00 21 3f 16 a2 18 bf e5 e1 27 bd 00 00 00 00
       0.6289205 -0.59622324 -0.040986914 0.0
000040 58 18 d3 bc 16 cc 39 3d 6a 51 51 bb 79 64 21 3e
       -0.025768444 0.045360647 -0.0031939396 0.15760984
000050 14 15 c5 3e 97 dc b1 bc 90 a8 15 bf ba 24 20 be
       0.38492644 -0.02171163 -0.5846033 -0.1563901
000060 97 3e ee bd 00 00 00 00 81 6f f7 bc 00 00 00 00
       -0.11633032 0.0 -0.030204536 0.0
000070 bd 86 0b ba 56 8c 9a 3e fb 68 01 be 78 45 85 3c
       -0.0005322507 0.30185193 -0.12637703 0.016268477
000080 f6 73 bd bc 13 6c 12 3f db e7 ca be d4 80 67 bc
       -0.023126584 0.5719616 -0.39630017 -0.014129836
000090 7b 59 b3 bd c2 13 99 3e ba e9 4e be 81 81 8a 3e
       -0.087573014 0.29897887 -0.20206347 0.2705193
0000a0 10 0b 41 3d ab 46 ab 3e be fb 64 bd e4 5c ae be
       0.04712969 0.33452353 -0.055904143 -0.34055245
0000b0 b2 69 27 3d 0c 50 51 3f 75 b3 d7 bc 1c 8a 49 3c
       0.040872283 0.81762767 -0.026330689 0.012300994
0000c0 6e 07 59 3e 8c 00 c4 3c e0 bf cd bc 4d 33 17 bd
       0.2119424 0.023926042 -0.025115907 -0.03691416
0000d0 8a 1f 05 ba 95 9a a3 be 45 6c a8 be 59 66 23 3f
       -0.0005078247 -0.31953874 -0.32895103 0.63828045
0000e0 fe 24 9c 3c 79 7a 83 bc 23 39 cc 3e 00 00 00 00
       0.019060608 -0.01604961 0.39887342 0.0
0000f0 a1 47 fd 3e 63 fa 4d be fc cf e6 bd 9c e7 d5 be
       0.4946871 -0.20115046 -0.112701386 -0.41778266

model/dense/MatMul/ReadVariableOp:0 f4 [6, 64]
000000 80 d4 80 be f0 3c 3c bd f0 6d 8b 3d 4d 71 b4 3d
       -0.25162125 -0.045956552 0.06808078 0.08810673
000010 d9 13 fd 3d d7 47 3d be e3 7e 3a bd 8e 67 0d bd
       0.12357301 -0.18484436 -0.045531165 -0.034522586
000020 f2 18 a0 be 90 19 54 bd ab 47 2b 3d 3f cc 86 be
       -0.31269032 -0.05178219 0.041816395 -0.26327702
000030 b0 3f 07 be db c4 c5 3d d8 52 42 be 60 05 d6 3d
       -0.13207889 0.09656688 -0.18976915 0.10450244
000040 e0 29 93 be a7 74 5c 3e 7a a8 38 be 11 3d b0 3d
       -0.28742886 0.21528874 -0.18033019 0.086053975
000050 ba c8 7d be 35 51 59 3d 1c ab 53 3d e2 26 88 be
       -0.24783602 0.05305596 0.051676854 -0.26592165
000060 fc 6e 9c bc 99 d2 3d 3d 4a 82 3f 3e 4e a7 35 3e
       -0.01909589 0.04634342 0.18702045 0.17739603
000070 94 d9 97 bd 95 20 d2 3d 1c a7 3c 3e e7 83 24 3e
       -0.074145466 0.10260121 0.18423122 0.16065942
000080 6f 4c 8b bd f4 7b 4b 3e b9 83 9c 3e 46 3a ac be
       -0.06801688 0.19871503 0.30569246 -0.3363821
000090 59 7f 02 3d cb e3 70 3e 56 77 59 3b ac c2 7d 3e
       0.03185973 0.23524396 0.0033182702 0.24781293
0000a0 d9 f2 8c 3c fb 53 81 3e 7c 35 d1 bd 22 c7 c1 3b
       0.017205643 0.25259385 -0.102152795 0.005913631
0000b0 a5 41 1a 3e ac 67 47 3e 6d 05 0a 3d 31 18 15 3e
       0.15064104 0.19473141 0.03369658 0.1456001
0000c0 31 72 da be d5 3e 98 be 8b ff 17 bd 79 97 1a 3e
       -0.42665246 -0.29735437 -0.03710894 0.15096845
0000d0 c5 46 cf bb ca ed 4b 3d 03 85 69 3e f4 1f 87 be
       -0.006325575 0.04978732 0.22804646 -0.26391566
0000e0 60 85 3c be 16 75 21 be aa c2 d2 bd 4e ed 62 3e
       -0.18410254 -0.15767321 -0.102910355 0.22160837
0000f0 14 b0 67 be fb 4e 16 3e 93 ea 53 bd f3 1e de bd
       -0.22625762 0.14678566 -0.05173738 -0.10845747
000100 de b4 64 bb 99 da 1c 3e bd a4 02 3d 3f 70 ef 3d
       -0.0034897844 0.15317763 0.031895388 0.11691331
000110 66 de d4 be 6e 5e 00 3e 3d 7e 75 3e 10 4c b9 be
       -0.41575927 0.12536022 0.23973937 -0.36190844
000120 65 28 56 3e 00 a9 d7 bd ca ff 5f be 90 07 b3 3c
       0.20913847 -0.10530281 -0.2187492 0.021854192
000130 c4 04 27 be 72 8b af bd 4f 1c d2 bc 4b 1f ce bd
       -0.16310412 -0.08571519 -0.025648264 -0.100645624
000140 d1 00 7b 3e 00 c8 89 be f6 52 47 3e 48 06 e8 3d
       0.2451203 -0.269104 0.19465241 0.11329323
000150 a7 0d 91 3d 5a 95 76 be a4 06 92 3e 02 07 86 be
       0.07082682 -0.2408041 0.2852069 -0.26177222
000160 8a da 80 be af ba 65 3e f1 47 87 be 9f e0 44 be
       -0.25166732 0.22434495 -0.26422074 -0.19226311
000170 da ed 06 bf 1f a2 c8 bc 96 99 9c bd 3c 59 a9 be
       -0.5270668 -0.024491368 -0.07646482 -0.33075893
000180 70 e5 e8 bd 22 5b 60 3e 14 b1 53 be 13 3d 90 be
       -0.11371887 0.21909764 -0.20673019 -0.28171596
000190 33 9a 09 3d 9a a9 21 bc 26 55 8e 3e c3 d1 33 3c
       0.03359432 -0.009867096 0.27799338 0.010975304
0001a0 84 e1 a9 bd 76 39 5b 3e 88 0d 94 bd 9e 1a d0 bd
       -0.08294967 0.21408638 -0.072291434 -0.10161327
0001b0 88 48 d8 3d f3 bf 5a bd 1a c4 5e be 77 3f 4c 3e
       0.10560709 -0.053405713 -0.21754494 0.19946085
0001c0 a2 1c 11 3e 0a 59 94 3e d9 9d e0 3d f0 b8 fd 3d
       0.14171079 0.2897418 0.10967607 0.1238879
0001d0 4f d0 17 be 0e 34 4c 3d 58 2a ab bd 0b 40 85 3e
       -0.14825557 0.04985433 -0.08357686 0.26025423
0001e0 3c 79 2a 3e c7 61 62 bc 80 88 93 3b 04 3c 36 3e
       0.1664781 -0.013817257 0.004502356 0.17796332
0001f0 b5 8d 52 be 93 c5 46 3e c3 4b 2f be 1a af c3 3d
       -0.2056187 0.19411306 -0.17118745 0.09554882
000200 0f a1 a3 3e c5 e6 d0 be ab 61 5c 3f 74 42 31 3f
       0.31958815 -0.40801063 0.8608653 0.69242024
000210 24 4c 98 3e 6e 53 12 bf 9a c6 96 be 09 68 f7 3e
       0.2974559 -0.57158554 -0.29448396 0.4832156
000220 16 a2 d1 be 52 98 46 be 6c 39 d1 3e 31 b0 23 be
       -0.40943974 -0.19394043 0.40864122 -0.1598518
000230 1d 1b b1 be 01 cc 2e bf 23 4c f3 3c 1c 15 55 bf
       -0.34590998 -0.68280035 0.02969939 -0.83235335
000240 50 16 49 bf 8c f8 45 3f 36 38 2f be 56 b1 35 3f
       -0.7854967 0.7733238 -0.17111287 0.7097372
000250 28 ee b6 be 57 00 38 3e 12 33 7f bd 50 ef 66 3e
       -0.35728574 0.1796888 -0.062304564 0.22552228
000260 f6 a1 62 3c a3 a0 69 be 6d 46 06 3e 6a c1 02 3f
       0.01383256 -0.22815184 0.13112803 0.51076376
000270 2d f0 51 3f 84 b3 b9 be ae b6 89 be cc ab 07 3f
       0.82007104 -0.36269772 -0.26897186 0.52996516
000280 b6 4b c7 bd 39 45 d2 3e d9 95 70 be f4 2c 80 be
       -0.097312376 0.41068438 -0.23494662 -0.25034297
000290 1b 92 97 be bc 7b c6 3d 57 96 65 bf 41 91 4b bf
       -0.29603657 0.09691569 -0.89682525 -0.79518515
0002a0 22 f3 bd be ca 50 1e bf 70 6e 52 be 22 ee 41 3e
       -0.37099558 -0.61842024 -0.20549941 0.18938497
0002b0 c1 2a 6d bf 7b 3f 48 be dd 05 a6 3e 42 2a dc 3e
       -0.9264336 -0.19555466 0.32426348 0.4300099
0002c0 84 d9 90 3e 8d ed 62 3a 07 a5 0b bd a6 03 50 bf
       0.2829095 0.00086566136 -0.03409293 -0.8125557
0002d0 88 f8 40 3e 6a 82 fa 3e fb 43 54 3e 8d 8a 2a bf
       0.18844807 0.48927623 0.20729057 -0.6661766
0002e0 c0 68 02 3f c9 3e ef 3d a0 11 35 bd c8 c6 50 be
       0.50941086 0.11681897 -0.04420626 -0.20388329
0002f0 d6 a0 57 be b9 c3 e7 bd f6 26 c0 bd 18 1f e3 be
       -0.21057448 -0.11316628 -0.09382431 -0.4435966
000300 c0 48 87 3e 9e 09 1b 3e 60 92 02 be 2d 2e a7 be
       0.2642269 0.15140387 -0.1275115 -0.32652417
000310 6d 75 e9 3c ac a7 08 be 2b bc e5 3d 47 73 cd 3d
       0.028498376 -0.13345212 0.11217531 0.10031753
000320 82 35 d8 3c 6d e7 1e be 1f 90 92 3e dc 6f 7e be
       0.026392702 -0.1551797 0.2862558 -0.24847358
000330 3a d0 5d bd 64 d8 de be dd e3 57 3d 28 2d 02 3d
       -0.05415366 -0.43524468 0.05270754 0.031781346
000340 74 e6 8f be 61 5c 34 be 09 7a c8 bd 86 a0 5e 3e
       -0.2810551 -0.17613365 -0.09788901 0.21740922
000350 c4 5e 7e 3d 46 39 51 3c 0b e0 a3 bd 40 20 4d bd
       0.062102094 0.012770003 -0.08001717 -0.050079584
000360 76 36 55 3e c6 02 13 bb 8b db 57 be a2 a4 4b bd
       0.20821556 -0.0022432073 -0.21079843 -0.049717553
000370 64 0f 41 3d d7 9a 92 3d 79 25 e9 bc a1 5e 0f be
       0.04713382 0.071584396 -0.028460251 -0.14000942
000380 2b 2d a9 3d a4 29 cc bd 97 1c 9b 3e 5e e9 d0 3d
       0.08260568 -0.0996888 0.3029525 0.10200761
000390 41 26 aa bd 2a 62 b6 bd 58 f4 b8 be 04 88 13 3d
       -0.083080776 -0.08905442 -0.3612392 0.036018386
0003a0 0d 04 84 be 6d ca 7f be 1e 81 c6 bd 11 b9 bb be
       -0.2578434 -0.24979563 -0.09692596 -0.36664632
0003b0 1a 90 8e be f4 8e 89 3c 4a 97 bd 3d 99 2b f6 3d
       -0.27844316 0.016791798 0.09257372 0.12020034
0003c0 3b 61 07 3d 1f 1e 5a bd ef ab a4 3d 79 84 ba bd
       0.03305171 -0.053251382 0.08040606 -0.091072984
0003d0 19 39 ee bd 8c 6c c1 3d e4 17 20 3e 57 a7 20 be
       -0.11631984 0.09444532 0.15634114 -0.15688835
0003e0 29 41 ad 3e 50 3c a9 3d 4e 61 47 be 72 d7 40 3e
       0.33838776 0.08263457 -0.19470713 0.18832186
0003f0 a0 2f 82 3c 7f e3 b4 bb 96 f2 6e 3e 2a 34 4f be
       0.01589185 -0.0055202837 0.23334727 -0.20234743

model/dense/BiasAdd/ReadVariableOp:0 f4 [64]
000000 73 a3 9f be 60 f9 98 be 41 84 16 be e3 ce 89 be
       -0.3117939 -0.29877758 -0.14698888 -0.26915655
000010 35 35 e1 3d b5 bd 6c 3e 90 a1 1b 3f a6 bf 3a bd
       0.109964766 0.23119242 0.607934 -0.045592926
000020 3f 19 26 3f 00 00 00 00 84 ef e3 be 00 00 00 00
       0.6488227 0.0 -0.44518673 0.0
000030 f8 10 09 3e 7e 6e ee 3e 3b 01 6f 3e 42 2d 25 3f
       0.1338538 0.46568674 0.23340313 0.6452218
000040 1a d2 f3 3e 07 43 04 3e 73 8b b3 3e f5 5f 21 bf
       0.47621232 0.12916194 0.3506733 -0.63037044
000050 c6 95 a0 be 0f bd 4c 3d f6 78 df be 00 00 00 00
       -0.31364268 0.049984988 -0.43646973 0.0
000060 75 eb f0 3e b1 c1 aa 3d 44 b9 22 3b 74 82 cc bd
       0.4705464 0.08337725 0.0024829665 -0.099858195
000070 2e fa 8b 3e 7a 2d 94 3e 74 32 94 3e 8c 65 63 3d
       0.2733931 0.28940946 0.28944743 0.055516765
000080 63 be f1 3c 0a 68 00 bf 7b dd 75 bd 4b 05 e0 bc
       0.029509729 -0.5015875 -0.060025673 -0.027346274
000090 fa 6d 49 3e 10 b4 5c be ae 89 2e 3f 0b 57 16 3f
       0.19670859 -0.21553063 0.6817883 0.5872657
0000a0 1a ad b2 3d ee 5e 36 3f 00 00 00 00 05 eb 8e 3e
       0.08724423 0.712386 0.0 0.2791368
0000b0 54 97 0b 3f 1f ed 0d 3e f0 83 26 3f 9e ab c2 bd
       0.54527783 0.13859986 0.6504507 -0.0950539
0000c0 1e 1a 34 be 9a 06 65 3e 5b 2e 7a bb ae 28 22 3f
       -0.17588088 0.223658 -0.0038174603 0.6334332
0000d0 16 14 7b bc 5b 22 88 be 91 82 b4 be 4b ad fa 3e
       -0.015324613 -0.2658871 -0.35255864 0.48960337
0000e0 30 df 0c bf f6 06 6a 3d 00 00 00 00 a1 e7 17 3d
       -0.5502806 0.057135545 0.0 0.037086133
0000f0 00 00 00 00 77 61 69 3e 64 f2 0c 3d ba f8 1d 3f
       0.0 0.22791086 0.03441085 0.6170765
